…
          save_epoch_freq: 5                             
         save_latest_freq: 5000                          
           serial_batches: False                         
                   suffix:                               
         update_html_freq: 1000                          
                  verbose: False                         
----------------- End -------------------
dataset [AlignedDataset] was created
The number of training images = 2400
initialize network with normal
DataParallel(
  (module): ResnetGenerator(
    (model): Sequential(
      (0): ReflectionPad2d((3, 3, 3, 3))
      (1): Conv2d(1, 64, kernel_size=(7, 7), stride=(1, 1))
      (2): InstanceNorm2d(64, eps=1e-05, momentum=0.1, affine=False, track_running_stats=False)
      (3): ReLU(inplace)
      (4): Conv2d(64, 128, kernel_size=(3, 3), stride=(2, 2), padding=(1, 1))
      (5): InstanceNorm2d(128, eps=1e-05, momentum=0.1, affine=False, track_running_stats=False)
      (6): ReLU(inplace)
      (7): Conv2d(128, 256, kernel_size=(3, 3), stride=(2, 2), padding=(1, 1))
      (8): InstanceNorm2d(256, eps=1e-05, momentum=0.1, affine=False, track_running_stats=False)
      (9): ReLU(inplace)
      (10): ResnetBlock(
        (conv_block): Sequential(
          (0): ReflectionPad2d((1, 1, 1, 1))
          (1): Conv2d(256, 256, kernel_size=(3, 3), stride=(1, 1))
          (2): InstanceNorm2d(256, eps=1e-05, momentum=0.1, affine=False, track_running_stats=False)
          (3): ReLU(inplace)
          (4): Dropout(p=0.5)
          (5): ReflectionPad2d((1, 1, 1, 1))
          (6): Conv2d(256, 256, kernel_size=(3, 3), stride=(1, 1))
          (7): InstanceNorm2d(256, eps=1e-05, momentum=0.1, affine=False, track_running_stats=False)
        )
      )
      (11): ResnetBlock(
        (conv_block): Sequential(
          (0): ReflectionPad2d((1, 1, 1, 1))
          (1): Conv2d(256, 256, kernel_size=(3, 3), stride=(1, 1))
          (2): InstanceNorm2d(256, eps=1e-05, momentum=0.1, affine=False, track_running_stats=False)
          (3): ReLU(inplace)
          (4): Dropout(p=0.5)
          (5): ReflectionPad2d((1, 1, 1, 1))
          (6): Conv2d(256, 256, kernel_size=(3, 3), stride=(1, 1))
          (7): InstanceNorm2d(256, eps=1e-05, momentum=0.1, affine=False, track_running_stats=False)
        )
      )
      (12): ResnetBlock(
        (conv_block): Sequential(
          (0): ReflectionPad2d((1, 1, 1, 1))
          (1): Conv2d(256, 256, kernel_size=(3, 3), stride=(1, 1))
          (2): InstanceNorm2d(256, eps=1e-05, momentum=0.1, affine=False, track_running_stats=False)
          (3): ReLU(inplace)
          (4): Dropout(p=0.5)
          (5): ReflectionPad2d((1, 1, 1, 1))
          (6): Conv2d(256, 256, kernel_size=(3, 3), stride=(1, 1))
          (7): InstanceNorm2d(256, eps=1e-05, momentum=0.1, affine=False, track_running_stats=False)
        )
      )
      (13): ResnetBlock(
        (conv_block): Sequential(
          (0): ReflectionPad2d((1, 1, 1, 1))
          (1): Conv2d(256, 256, kernel_size=(3, 3), stride=(1, 1))
          (2): InstanceNorm2d(256, eps=1e-05, momentum=0.1, affine=False, track_running_stats=False)
          (3): ReLU(inplace)
          (4): Dropout(p=0.5)
          (5): ReflectionPad2d((1, 1, 1, 1))
          (6): Conv2d(256, 256, kernel_size=(3, 3), stride=(1, 1))
          (7): InstanceNorm2d(256, eps=1e-05, momentum=0.1, affine=False, track_running_stats=False)
        )
      )
      (14): ResnetBlock(
        (conv_block): Sequential(
          (0): ReflectionPad2d((1, 1, 1, 1))
          (1): Conv2d(256, 256, kernel_size=(3, 3), stride=(1, 1))
          (2): InstanceNorm2d(256, eps=1e-05, momentum=0.1, affine=False, track_running_stats=False)
          (3): ReLU(inplace)
          (4): Dropout(p=0.5)
          (5): ReflectionPad2d((1, 1, 1, 1))
          (6): Conv2d(256, 256, kernel_size=(3, 3), stride=(1, 1))
          (7): InstanceNorm2d(256, eps=1e-05, momentum=0.1, affine=False, track_running_stats=False)
        )
      )
      (15): ResnetBlock(
        (conv_block): Sequential(
          (0): ReflectionPad2d((1, 1, 1, 1))
          (1): Conv2d(256, 256, kernel_size=(3, 3), stride=(1, 1))
          (2): InstanceNorm2d(256, eps=1e-05, momentum=0.1, affine=False, track_running_stats=False)
          (3): ReLU(inplace)
          (4): Dropout(p=0.5)
          (5): ReflectionPad2d((1, 1, 1, 1))
          (6): Conv2d(256, 256, kernel_size=(3, 3), stride=(1, 1))
          (7): InstanceNorm2d(256, eps=1e-05, momentum=0.1, affine=False, track_running_stats=False)
        )
      )
      (16): ResnetBlock(
        (conv_block): Sequential(
          (0): ReflectionPad2d((1, 1, 1, 1))
          (1): Conv2d(256, 256, kernel_size=(3, 3), stride=(1, 1))
          (2): InstanceNorm2d(256, eps=1e-05, momentum=0.1, affine=False, track_running_stats=False)
          (3): ReLU(inplace)
          (4): Dropout(p=0.5)
          (5): ReflectionPad2d((1, 1, 1, 1))
          (6): Conv2d(256, 256, kernel_size=(3, 3), stride=(1, 1))
          (7): InstanceNorm2d(256, eps=1e-05, momentum=0.1, affine=False, track_running_stats=False)
        )
      )
      (17): ResnetBlock(
        (conv_block): Sequential(
          (0): ReflectionPad2d((1, 1, 1, 1))
          (1): Conv2d(256, 256, kernel_size=(3, 3), stride=(1, 1))
          (2): InstanceNorm2d(256, eps=1e-05, momentum=0.1, affine=False, track_running_stats=False)
          (3): ReLU(inplace)
          (4): Dropout(p=0.5)
          (5): ReflectionPad2d((1, 1, 1, 1))
          (6): Conv2d(256, 256, kernel_size=(3, 3), stride=(1, 1))
          (7): InstanceNorm2d(256, eps=1e-05, momentum=0.1, affine=False, track_running_stats=False)
        )
      )
      (18): ResnetBlock(
        (conv_block): Sequential(
          (0): ReflectionPad2d((1, 1, 1, 1))
          (1): Conv2d(256, 256, kernel_size=(3, 3), stride=(1, 1))
          (2): InstanceNorm2d(256, eps=1e-05, momentum=0.1, affine=False, track_running_stats=False)
          (3): ReLU(inplace)
          (4): Dropout(p=0.5)
          (5): ReflectionPad2d((1, 1, 1, 1))
          (6): Conv2d(256, 256, kernel_size=(3, 3), stride=(1, 1))
          (7): InstanceNorm2d(256, eps=1e-05, momentum=0.1, affine=False, track_running_stats=False)
        )
      )
      (19): ConvTranspose2d(256, 128, kernel_size=(3, 3), stride=(2, 2), padding=(1, 1), output_padding=(1, 1))
      (20): InstanceNorm2d(128, eps=1e-05, momentum=0.1, affine=False, track_running_stats=False)
      (21): ReLU(inplace)
      (22): ConvTranspose2d(128, 64, kernel_size=(3, 3), stride=(2, 2), padding=(1, 1), output_padding=(1, 1))
      (23): InstanceNorm2d(64, eps=1e-05, momentum=0.1, affine=False, track_running_stats=False)
      (24): ReLU(inplace)
      (25): ReflectionPad2d((3, 3, 3, 3))
      (26): Conv2d(64, 1, kernel_size=(7, 7), stride=(1, 1))
      (27): Tanh()
    )
  )
)
initialize network with normal
DataParallel(
  (module): NLayerDiscriminator(
    (model): Sequential(
      (0): Conv2d(2, 64, kernel_size=(4, 4), stride=(2, 2), padding=(1, 1))
      (1): LeakyReLU(negative_slope=0.2, inplace)
      (2): Conv2d(64, 128, kernel_size=(4, 4), stride=(2, 2), padding=(1, 1))
      (3): InstanceNorm2d(128, eps=1e-05, momentum=0.1, affine=False, track_running_stats=False)
      (4): LeakyReLU(negative_slope=0.2, inplace)
      (5): Conv2d(128, 256, kernel_size=(4, 4), stride=(2, 2), padding=(1, 1))
      (6): InstanceNorm2d(256, eps=1e-05, momentum=0.1, affine=False, track_running_stats=False)
      (7): LeakyReLU(negative_slope=0.2, inplace)
      (8): Conv2d(256, 512, kernel_size=(4, 4), stride=(1, 1), padding=(1, 1))
      (9): InstanceNorm2d(512, eps=1e-05, momentum=0.1, affine=False, track_running_stats=False)
      (10): LeakyReLU(negative_slope=0.2, inplace)
      (11): Conv2d(512, 1, kernel_size=(4, 4), stride=(1, 1), padding=(1, 1))
    )
  )
)
model [Pix2PixModel] was created
---------- Networks initialized -------------
[Network G] Total number of parameters : 11.366 M
[Network D] Total number of parameters : 2.764 M
-----------------------------------------------
create web directory ./checkpoints/ex003_pix2pix/web...
(epoch: 1, iters: 800, time: 0.012, data: 0.244) G_GAN: 1.864 G_L1: 24.456 D_real: 0.386 D_fake: 0.671 
…
